onnx_model.onnx (onnx, 89180 bytes, 8 tensors)

conv1.weight f4 [10, 1, 5, 5]
0.04360225 -0.10647834 0.08897351 0.050464522 -0.010018553 -0.19820231 -0.076591425 0.08373189
0.3840922 -0.23313136 -0.19489357 -0.1381925 0.32453382 0.46175456 -0.6366715 -0.037165936
-0.011500263 0.43306112 -0.113633536 -0.34590235 -0.05528051 0.22095443 0.025534492 -0.061116405
-0.24075615 0.076112516 0.071919866 0.35053062 0.2917821 0.047050204 -0.025737433 -0.28447375
-0.040466364 0.2485485 0.13268654 -0.056056228 0.17844233 -0.119333304 0.35851833 0.16810834
-0.64113396 -0.26477534 -0.147739 -0.052081577 0.15734546 -0.31299144 -0.17970364 -0.25295687
-0.11775279 0.11871367 -0.10288563 -0.037357505 0.09109533 0.07218562 0.09009735 -0.07921348
0.18751363 -0.16227847 -0.028983055 0.19114676 -0.088353194 -0.40689242 -0.2964622 0.29562744
0.30183312 -0.31305572 -0.10564044 0.51355636 0.3665096 -0.07110586 0.44854027 -0.015602187
0.1478307 -0.3646144 -0.2786473 -0.013530808 -0.20304272 -0.28738067 -0.111555554 -0.4811847
0.12734486 -0.2012576 0.008391784 -0.38074797 -0.5005968 0.27817637 -0.01017506 -0.30613393
-0.36624008 0.055278357 0.2942087 -0.17160518 -0.56426185 -0.093846574 0.6251874 0.24091567
-0.52416897 -0.67592543 0.011182234 0.50414723 0.3054514 0.08941078 -0.42270088 -0.021998938
-0.22415762 0.056983702 0.27766642 0.08381252 -0.296425 -0.30664387 0.05829825 0.26242614
0.148385 -0.11508717 -0.41916865 0.080219366 -0.13376755 0.37399164 -0.13929598 -0.041986305
0.042672608 0.0266639 0.17569982 0.1938695 0.13828452 -0.09670225 -0.18137126 -0.109387904
-0.34467614 -0.069131695 0.211838 0.13117076 0.012749056 -0.3645922 -0.58773476 -0.007059671
0.35516357 0.4869176 0.11799071 0.25153115 -0.17969303 -0.19595304 0.4804557 0.35981438
-0.3338187 -0.028687773 -0.3309853 -0.18402974 0.13324773 0.24810682 0.029171495 0.23385781
0.4018906 0.17055176 0.05277368 -0.20613056 -0.2585349 -0.37927672 -0.4661544 -0.55080813
0.06457234 -0.081608415 -0.5401084 -0.16661693 0.23524745 0.01741462 -0.028537724 0.2156778
0.34894654 0.30352804 0.10030162 0.12092712 0.26979554 0.11777446 -0.09014013 -0.19345307
-0.1769805 -0.13951835 -0.08800295 0.34257177 -0.59873945 -0.16135694 0.1435596 0.15140222
0.185822 -0.4389236 -0.576904 -0.04438145 0.1806859 0.57378125 0.026186693 -0.82199234
-0.79848206 -0.49011853 0.16326202 0.40880212 0.1645305 -0.26111478 -0.65618867 -0.9989358
-0.2587666 -0.09873942 -0.043146573 0.087747216 -0.022888025 -0.28723723 -0.10175771 -0.04782083
-0.009724056 0.058264002 -0.2920635 -0.28334025 -0.20001058 0.07226253 0.075627424 -0.42342278
-0.121117525 0.0046287496 0.15167831 0.33305335 0.07794438 -0.19678664 0.09479643 0.16592537
0.3987402 0.36378428 0.12973271 0.27342907 0.20849799 0.15923275 0.23707864 0.1022579
0.027575642 0.123755515 -0.08066367 -0.324715 -0.057037015 0.22109236 -0.14463322 -0.3056765
0.029938836 0.061683614 -0.35516557 -0.5280107 0.039114997 -0.47263855 -0.5579878 -0.33296788
0.14712815 0.1562663
00000000: 4698 323d 5111 dabd be37 b63d e3b3 4e3d
00000010: db24 24bc 8cf5 4abe f7db 9cbd a07b ab3d
00000020: bca7 c43e fdb9 6ebe 2e92 47be 5682 0dbe
00000030: 4c29 a63e 186b ec3e e7fc 22bf 4f3b 18bd
00000040: 996b 3cbc 30ba dd3e b3b8 e8bd 1d1a b1be
00000050: d16d 62bd e141 623e b62d d13c 3255 7abd
00000060: c888 76be e1e0 9b3d b94a 933d c078 b33e
00000070: 7764 953e b7b7 403d 4fd7 d2bc 8ba6 91be
00000080: 0fc0 25bd 7f83 7e3e fbde 073e 379b 65bd
00000090: 96b9 363e 0565 f4bd b78f b73e 9824 2c3e
000000a0: 5b21 24bf a290 87be e448 17be 7e53 55bd
000000b0: 2b1f 213e 6a40 a0be 3b04 38be 9083 81be
000000c0: 6028 f1bd 2720 f33d b4b5 d2bd 2f04 19bd
000000d0: 3090 ba3d 0ed6 933d f684 b83d ad3a a2bd
000000e0: 9303 403e 542c 26be df6d edbc fabb 433e
000000f0: 85f2 b4bd 3454 d0be e5c9 97be 7b5c 973e
00000100: df89 9a3e d748 a0be 045a d8bd 6e78 033f
00000110: 25a7 bb3e f39f 91bd 12a7 e53e 51a0 7fbc
00000120: ee60 173e bdae babe dcaa 8ebe 52b0 5dbc
00000130: 6eea 4fbe 8f23 93be 3d77 e4bd d75d f6be
00000140: b166 023e 7916 4ebe b17d 093c 66f1 c2be
00000150: 1d27 00bf 226d 8e3e 4bb5 26bc 96bd 9cbe
00000160: d283 bbbe 8f6b 623d 86a2 963e 45b9 2fbe
00000170: 7773 10bf a232 c0bd 480c 203f 99b2 763e
00000180: f02f 06bf 7309 2dbf b035 373c cb0f 013f
00000190: 2064 9c3e 001d b73d 406c d8be 1e37 b4bc
000001a0: 9389 65be be67 693d 4b2a 8e3e e6a5 ab3d
000001b0: 05c5 97be 6d00 9dbe 25ca 6e3d b85c 863e
000001c0: 3df2 173e d2b2 ebbd 469d d6be 0d4a a43d
000001d0: 5cfa 08be d57b bf3e 9ba3 0ebe d5f9 2bbd
000001e0: 79c9 2e3d 406e da3c a7ea 333e ba85 463e
000001f0: 759a 0d3e d40b c6bd 63b9 39be c406 e0bd
00000200: 6479 b0be eb94 8dbd 10ec 583e a151 063e
00000210: 6be1 503c d4ab babe c975 16bf d054 e7bb
00000220: 00d8 b53e 434d f93e 1da5 f13d b1c8 803e
00000230: 7301 38be eaa7 48be 4afe f53e 9739 b83e
00000240: 49ea aabe 9f02 ebbc e876 a9be 4b72 3cbe
00000250: 1872 083e b70f 7e3e 0ff9 ee3c 6c78 6f3e
00000260: 9bc4 cd3e 1fa5 2e3e 3729 583d e413 53be
00000270: b05e 84be 8f30 c2be caab eebe c301 0dbf
00000280: 813e 843d 5022 a7bd 8b44 0abf a19d 2abe
00000290: b5e4 703e 1ba9 8e3c f2c7 e9bc a4da 5c3e
000002a0: 1fa9 b23e 0768 9b3e f06a cd3d a3a8 f73d
000002b0: a422 8a3e bc33 f13d 639b b8bd 9018 46be
000002c0: 603a 35be e6dd 0ebe e43a b4bd 9165 af3e
000002d0: fd46 19bf c13a 25be 4a01 133e 2f09 1b3e
000002e0: 1f48 3e3e 98ba e0be fbaf 13bf 53c9 35bd
000002f0: b905 393e 54e3 123f 7a85 d63c 176e 52bf
00000300: 5269 4cbf d1f0 fabe 292e 273e 834e d13e
00000310: af7a 283e d6b0 85be fbfb 27bf 42ba 7fbf
00000320: 0e7d 84be e537 cabd 76ba 30bd d0b4 b33d
00000330: ab7f bbbc c210 93be 5966 d0bd c6df 43bd
00000340: a651 1fbc 3ca6 6e3d 5989 95be f911 91be
00000350: 93cf 4cbe 61fe 933d 8de2 9a3d dfca d8be
00000360: 770c f8bd c4ac 973b 8f51 1b3e f885 aa3e
00000370: 4ea1 9f3d 7082 49be a124 c23d 57e8 293e
00000380: ad27 cc3e ef41 ba3e a7d8 043e e5fe 8b3e
00000390: 7f80 553e e90d 233e bec4 723e 976c d13d
000003a0: 50e6 e13c 8873 fd3d ff32 a5bd 0b41 a6be
000003b0: a59f 69bd 0966 623e bb1a 14be a181 9cbe
000003c0: 4a42 f53c f5a7 7c3d 43d8 b5be b62b 07bf
000003d0: 0c37 203d aefd f1be 4ad8 0ebf c47a aabe
000003e0: c3a8 163e 4604 203e

conv1.bias f4 [10]
-0.37196606 -0.30139458 -0.6625921 -1.0418234 -0.5850152 -0.23158887 -0.23275633 -0.993401
-0.43811467 -0.4160547
00000000: 5672 bebe 6450 9abe a39f 29bf 785a 85bf
00000010: 8ec3 15bf a225 6dbe ad57 6ebe 874f 7ebf
00000020: 9150 e0be 1f05 d5be

conv2.weight f4 [20, 10, 5, 5]
-0.15525205 0.23200452 0.11790795 0.11208981 -0.10889654 -0.27094245 -0.15889773 -0.04925902
-0.0803069 -0.33230248 -0.15384918 -0.25327384 -0.23119621 -0.08355154 -0.17148854 0.15743002
0.044423584 -0.06964531 -0.0003405567 0.023439726 -0.033646986 0.07235752 0.03747594 0.07024962
-0.111164115 -0.23659961 -0.09319275 0.009023509 -0.15863484 -0.12063016 -0.31541452 -0.17007184
0.08536903 0.26742768 0.13064134 0.010377801 -0.013264819 0.10611436 0.0012216058 -0.09429692
0.15853849 0.20994502 0.09913161 -0.14523774 -0.24498698 -0.15054764 -0.023712354 0.08197154
0.05937224 0.07569139 0.060958676 0.23520786 0.15038505 0.02328957 0.107788354 -0.09978699
-0.08382116 -0.024395749 -0.055355377 -0.021618854 -0.089540645 -0.18663429 -0.1942889 -0.06194945
0.020582346 0.042825498 0.01370361 -0.059952866 -0.15407507 -0.17029805 -0.01932544 0.10823362
-0.05890838 -0.08080165 -0.12385375 -0.085440226 -0.065305255 0.087131396 0.059285946 0.114754744
-0.013673845 -0.05822527 -0.09603965 -0.13538611 -0.12877607 0.033220697 -0.031189857 -0.060992457
-0.13619773 -0.121568464 0.18234362 0.15138419 0.01967941 0.04939796 0.06415486 -0.083467565
-0.03560302 0.14411284 -0.09892296 -0.12488387 0.2413238 -0.17499128 -0.22201051 -0.13350567
-0.07864275 -0.0004719273 -0.003963153 0.17331518 -0.04765712 0.08274624 -0.05351735 0.281521
0.1807758 -0.020904504 -0.16086324 -0.035577666 0.11644923 -0.10111442 -0.04408332 0.025225656
-0.26229015 -0.05159221 0.12283419 0.1174685 -0.0036094526 0.23769826 0.13502094 -0.089017175
-0.09475751 -0.005261271 0.05118704 0.0068552755 0.032969356 -0.032629926 0.03265027 -0.18177095
0.19801846 0.11875753 -0.07666415 0.052343365 0.15459839 0.13025422 -0.0047069537 -0.019419141
0.007108742 0.023640059 0.09459756 0.024781354 0.02423674 -0.03037667 -0.02782371 -0.0372836
0.056534346 0.023618327 0.031668574 0.018858667 0.09823446 -0.007986292 -0.083605506 0.05860602
0.22106156 0.064503275 0.124109074 0.009710048 0.05086179 0.12851161 -0.04476 0.07366468
0.08055103 0.054146238 0.090185806 -0.14943083 0.050071876 0.007212876 -0.02957892 0.00078028574
-0.04409658 -0.2688916 -0.07137763 0.017015655 -0.0025153775 0.20920897 0.10536555 0.24401736
0.18278688 -0.18835972 0.2123905 0.056305066 -0.054746725 -0.02652082 -0.27213025 -0.12853996
-0.17011951 -0.03107494 -0.17978415 -0.042311754 -0.10547625 0.08674119 0.07781021 0.2586633
-0.1803792 -0.19265853 0.026868554 0.17710711 0.28572103 -0.15662839 -0.197614 0.11404519
0.08387181 -0.18904446 0.01502666 -0.034468032 -0.2631422 -0.06992724 -0.34393254 -0.1374965
0.0931803 -0.08040615 0.14393398 0.076314606 -0.17575708 0.14446336 0.07935581 0.05854597
-0.038348496 0.085861556 0.12048479 0.11010239 0.083547786 -0.07862816 0.0021308768 -0.2295289
-0.11756901 -0.06690319 0.23899724 0.11367844 -0.09712994 0.13667843 0.0005743072 -0.043703135
0.05277264 0.039017413 0.19578011 -0.15034129 0.026345672 0.07617252 -0.11704653 -0.010454703
0.00066024944 0.06655 0.021037854 0.16410571 0.14567313 0.101720504 -0.15728597 0.0810451
00000000: 65fa 1ebe 9892 6d3e b979 f13d 588f e53d
00000010: 2605 dfbd f8b8 8abe 16b6 22be d3c3 49bd
00000020: f277 a4bd 8d23 aabe a48a 1dbe 1cad 81be
00000030: b3be 6cbe 121d abbd b19a 2fbe 5635 213e
00000040: 81f5 353d 33a2 8ebd bf8c b2b9 ab04 c03c
00000050: 6cd1 09bd 2e30 943d 5f80 193d 08df 8f3d
00000060: 03aa e3bd 2b47 72be d7db bebd 57d7 133c
00000070: 2c71 22be f20c f7bd 037e a1be 5027 2ebe
00000080: f5d5 ae3d 48ec 883e d8c6 053e a707 2a3c
00000090: af54 59bc 7c52 d93d 4a1e a03a be1e c1bd
000000a0: ea57 223e d4fb 563e 8305 cb3d 34b9 14be
000000b0: dedd 7abe 2929 1abe 6940 c2bc b2e0 a73d
000000c0: 4e30 733d 1604 9b3d ceaf 793d 54da 703e
000000d0: 8afe 193e c5c9 be3c 24c0 dc3d 1f5d ccbd
000000e0: 6eaa abbd 98d9 c7bc 52bc 62bd 061a b1bc
000000f0: 1661 b7bd 0f1d 3fbe abf3 46be b5be 7dbd
00000100: 4f9c a83c ca69 2f3d 1b85 603c 2391 75bd
00000110: dbc5 1dbe 9d62 2ebe 6350 9ebc 97a9 dd3d
00000120: ea49 71bd 567b a5bd 09a7 fdbd 49fb aebd
00000130: c3be 85bd f271 b23d d2d5 723d 8904 eb3d
00000140: 4308 60bc 9f7d 6ebd 70b0 c4bd a8a2 0abe
00000150: e0dd 03be 6d12 083d df81 ffbc 3ad3 79bd
00000160: 6b77 0bbe e3f8 f8bd 49b8 3a3e 7504 1b3e
00000170: b736 a13c 8455 4a3d a063 833d 0bf1 aabd
00000180: 79d4 11bd 5192 133e 1f98 cabd 1dc3 ffbd
00000190: 961d 773e ea30 33be b956 63be b6b5 08be
000001a0: 730f a1bd 036d f7b9 56dd 81bb 8979 313e
000001b0: 1d34 43bd dc76 a93d 0235 5bbd 8523 903e
000001c0: 4b1d 393e ec3f abbc 55b9 24be e3b9 11bd
000001d0: ef7c ee3d 1415 cfbd b690 34bd 09a6 ce3c
000001e0: e54a 86be 5a52 53bd 7e90 fb3d 5393 f03d
000001f0: 918c 6cbb 2c67 733e ee42 0a3e a34e b6bd
00000200: 3a10 c2bd bd66 acbb 80a9 513d 38a2 e03b
00000210: e00a 073d f5a6 05bd 4abc 053d 2a22 3abe
00000220: 5ac5 4a3e 2637 f33d 1802 9dbd ff65 563d
00000230: 0a4f 1e3e 5d61 053e ca3c 9abb e414 9fbc
00000240: 73f0 e83b cca8 c13c 5ebc c13d 4402 cb3c
00000250: 218c c63c 7fd8 f8bc 8dee e3bc b0b6 18bd
00000260: 8f90 673d 397b c13c e8b6 013d 7e7d 9a3c
00000270: 262f c93d f0d8 02bc 5d39 abbd de0c 703d
00000280: f65d 623e 4b1a 843d e62c fe3d e516 1f3c
00000290: 7454 503d 8c98 033e 4356 37bd 82dd 963d
000002a0: f0f7 a43d 72c8 5d3d 56b3 b83d 6504 19be
000002b0: 2b18 4d3d fd59 ec3b 7e4f f2bc 178c 4c3a
000002c0: 9e9e 34bd 29ac 89be 6f2e 92bd 6a64 8b3c
000002d0: 08d9 24bb e03a 563e e5c9 d73d b0df 793e
000002e0: 7c2c 3b3e 5fe1 40be e57c 593e 24a0 663d
000002f0: 1a3e 60bd 3142 d9bc a854 8bbe fb9f 03be
00000300: cf33 2ebe df90 febc 5619 38be 174f 2dbd
00000310: ef03 d8bd 5da5 b13d f65a 9f3d 846f 843e
00000320: 53b5 38be 4748 45be 711b dc3c 915b 353e
00000330: 074a 923e 3163 20be 535b 4abe 8690 e93d
00000340: fcc4 ab3d df94 41be 6132 763c 5a2e 0dbd
00000350: 93ba 86be 0336 8fbd ed17 b0be e2cb 0cbe
00000360: 50d5 be3d fbab a4bd 6e63 133e d54a 9c3d
00000370: aaf9 33be 34ee 133e 4d85 a23d e6cd 6f3d
00000380: 5013 1dbd 2fd8 af3d bbc0 f63d 5d7d e13d
00000390: 1a1b ab3d cd07 a1bd 2ea6 0b3b a009 6bbe
000003a0: 05c8 f0bd 8a04 89bd b1bb 743e 3ed0 e83d
000003b0: 10ec c6bd 6ef5 0b3e 1b8d 163a 0f02 33bd
000003c0: 2028 583d b9d0 1f3d 957a 483e 11f3 19be
000003d0: e1d2 d73c 5700 9c3d 17b6 efbd 344a 2bbc
000003e0: 9714 2d3a 5e4b 883d 9457 ac3c 540b 283e
000003f0: 562b 153e d752 d03d 930f 21be f9fa a53d

conv2.bias f4 [20]
-0.04951547 -0.25476375 -0.2657618 -0.1255215 -0.16041686 -0.025928514 -0.13003908 -0.05540814
0.12120335 -0.010070783 0.1059691 -0.03149644 0.058765694 -0.17842656 -0.07145095 -0.10452126
0.012086833 0.23912145 -0.053132042 -0.03092124
00000000: bcd0 4abd 6570 82be ee11 88be b588 00be
00000010: 5144 24be 0968 d4bc f728 05be a5f3 62bd
00000020: 7639 f83d edff 24bc 5406 d93d 6902 01bd
00000030: 4cb4 703d 74b5 36be e054 92bd 3e0f d6bd
00000040: da07 463c 41dc 743e fca0 59bd 8a4e fdbc

fc1.weight f4 [50, 320]
0.07628214 -0.03557373 -0.14333454 -0.115213975 -0.016134463 -0.030625474 0.03369684 0.07724514
0.24003053 0.120670564 0.06669559 -0.039109033 0.17686099 -0.008105053 0.008205837 -0.160039
0.01843486 0.052562058 -0.114397876 0.28300765 -0.12217487 0.12871343 -0.083946176 -0.0044085653
0.028023338 0.048096195 -0.0056079966 -0.00796795 -0.03779692 0.056585815 0.00038025103 -0.12520741
-0.05639427 -0.104206026 0.08281529 -0.06649626 0.022677984 0.03927362 -0.024608996 -0.02093606
-0.049137898 0.13482237 -0.022032196 0.09457069 0.07368194 0.08185433 0.013961569 -0.051569037
-0.023281826 -0.10685837 -0.10368662 0.057077568 -0.080540664 -0.026078304 0.092942 0.036306195
-0.075620785 0.074462056 0.035912007 -0.17479797 0.14910792 -0.013068784 0.07794788 0.027019728
-0.006218556 -0.08479775 -0.14773972 0.12949513 0.03855776 -0.0023388641 0.020788455 0.021737821
-0.20430341 0.08124447 0.0898928 -0.06738073 0.2039501 0.03395016 -0.07921226 -0.14362961
0.103793465 0.060707662 0.06698977 0.0012306678 0.0771178 -0.097791694 -0.16771668 -0.19579336
-0.08286857 -0.19409508 -0.0570985 0.10724163 0.028254094 0.03841205 0.03795493 0.05314592
0.001190712 -0.06951808 0.05135099 0.122158505 0.050877187 0.034721944 0.013491055 0.030600017
0.008781848 -0.009963404 -0.040738426 -0.05114832 0.04194626 -0.015723947 0.0012183129 0.006900806
0.03364135 0.11640918 0.09625344 0.068988934 0.048953228 -0.090805486 -0.06490582 0.026703158
0.030989638 -0.0025585531 0.0074939663 -0.022907529 0.05237212 -0.027182199 0.07579114 -0.04105077
0.027973758 -0.06317687 -0.0158822 0.19853559 0.05144855 0.026946258 -0.041166853 -0.07257237
0.08108643 -0.07139075 0.08599884 -0.05958722 0.051139437 -0.023558944 0.008873359 0.024995178
0.23280472 0.14974676 0.14733972 0.12566516 -0.15642306 0.014487342 -0.035396714 0.05628117
-0.028598405 -0.03956983 -0.088668615 -0.04172989 -0.068746805 -0.13107288 0.005222692 0.0036917822
-0.118366346 -0.18323499 -0.03150952 -0.019072546 -0.09743108 -0.020974638 0.14272687 0.10246084
-0.05065721 0.090588555 -0.0062357965 0.03864427 -0.06862029 0.011311576 -0.022004047 -0.09962709
-0.04994228 0.011472931 -0.035519958 0.081968635 0.03641162 0.12521297 -0.1675262 0.0807272
0.004305321 -0.09753306 -0.18459064 -0.061570797 0.058317434 0.009146109 0.04455536 -0.0316833
-0.047863923 -0.18410002 -0.1455788 0.06425678 0.042535886 0.098626584 0.08515286 0.22628264
0.032334644 -0.071998425 -0.02900842 -0.058206506 -0.09351832 -0.016060198 0.042939104 -0.11323482
-0.06544802 0.10847588 0.073802955 0.08303371 -0.03989361 0.15263389 0.031065779 -0.06201852
0.041184474 -0.024878383 -0.08348697 -0.092384405 0.028029177 -0.0067889644 0.037802663 0.028629461
0.065821454 0.06842013 0.042133655 0.13141969 -0.008673842 0.11240199 0.13166925 -0.044609778
0.000696305 -0.16058323 -0.06370091 -0.17806827 -0.10626399 -0.053584673 -0.036770422 -0.027122876
-0.06864206 0.14523426 0.011138444 0.12996317 0.048195694 0.20862034 -0.0063208533 -0.28279203
-0.035590768 -0.020829264 -0.23390834 -0.016364833 -0.10853513 -0.14892076 0.06816565 0.03611455
00000000: d039 9c3d c2b5 11bd 4ac6 12be 4ef5 ebbd
00000010: 6c2c 84bc 46e2 fabc b305 0a3d b332 9e3d
00000020: 90ca 753e 2122 f73d b397 883d cb30 20bd
00000030: 0c1b 353e 0ecb 04bc c671 063c 43e1 23be
00000040: b404 973c 504b 573d 6f49 eabd 61e6 903e
00000050: d136 fabd 74cd 033e f9eb abbd ba75 90bb
00000060: 3391 e53c 8400 453d 49c3 b7bb 018c 02bc
00000070: f1d0 1abd 87c6 673d 6e5c c739 5f36 00be
00000080: aefd 66bd f869 d5bd 109b a93d 312f 88bd
00000090: 2ec7 b93c 60dd 203d ce98 c9bc 1a82 abbc
000000a0: d244 49bd e00e 0a3e dd7c b4bc 47ae c13d
000000b0: 8fe6 963d 3ea3 a73d 11bf 643c 0e3a 53bd
000000c0: 87b9 bebc 90d8 dabd a759 d4bd 2bca 693d
000000d0: 81f2 a4bd 2ba2 d5bc 6058 be3d ceb5 143d
000000e0: 12df 9abd 907f 983d 7818 133d 3dfe 32be
000000f0: bfaf 183e 741e 56bc 23a3 9f3d 7a58 dd3c
00000100: 07c5 cbbb 71aa adbd 1549 17be 5f9a 043e
00000110: beee 1d3d a147 19bb 8d4c aa3c 8413 b23c
00000120: ea34 51be 8063 a63d b719 b83d e8fe 89bd
00000130: 4cd8 503e 530f 0b3d 0a3a a2bd a413 13be
00000140: ab91 d43d 99a8 783d ef31 893d 5c4e a13a
00000150: f0ef 9d3d 0347 c8bd ecbd 2bbe 0e7e 48be
00000160: ffb6 a9bd dcc0 46be 1ee0 69bd 80a1 db3d
00000170: 2175 e73c f455 1d3d a176 1b3d 89af 593d
00000180: aa11 9c3a 7f5f 8ebd 6a55 523d 3d2e fa3d
00000190: 9964 503d 9938 0e3d 9609 5d3c e3ac fa3c
000001a0: bde1 0f3c 8c3d 23bc 56dd 26bd e780 51bd
000001b0: d7cf 2b3d 82cf 80bc ccaf 9f3a 2820 e23b
000001c0: 83cb 093d f067 ee3d 8620 c53d 124a 8d3d
000001d0: 2e83 483d 3af8 b9bd 58ed 84bd 95c0 da3c
000001e0: fbdd fd3c 66ad 27bb f28f f53b 92a8 bbbc
000001f0: 2684 563d 34ad debc 6338 9b3d da24 28bd
00000200: 3929 e53c e062 81bd 631b 82bc ea4c 4b3e
00000210: b7bb 523d 66be dc3c 939e 28bd d3a0 94bd
00000220: a410 a63d 5035 92bd 2920 b03d bb11 74bd
00000230: 9677 513d b0fe c0bc 9161 113c b0c2 cc3c
00000240: 5c64 6e3e 3757 193e 39e0 163e 5eae 003e
00000250: 5e2d 20be 515c 6d3c 25fc 10bd 1687 663d
00000260: 3447 eabc f913 22bd e497 b5bd f6ec 2abd
00000270: 20cb 8cbd f837 06be 1e23 ab3b d4f1 713b
00000280: 0e6a f2bd f4a1 3bbe 2010 01bd 073e 9cbc
00000290: f289 c7bd 01d3 abbc fe26 123e fdd6 d13d
000002a0: ef7d 4fbd 7e86 b93d a755 ccbb 7449 1e3d
000002b0: cb88 8cbd 3054 393c d541 b4bc 4a09 ccbd
000002c0: 4790 4cbd f6f8 3b3c 607d 11bd 2cdf a73d
000002d0: 5a24 153d d437 003e fd8b 2bbe 4d54 a53d
000002e0: a613 8d3b 6abf c7bd 5405 3dbe a931 7cbd
000002f0: 43de 6e3d 90d9 153c ae7f 363d 59c6 01bd
00000300: f60c 44bd b784 3cbe 9c12 15be 0f99 833d
00000310: 1c3a 2e3d bcfc c93d 9f64 ae3d a3b6 673e
00000320: 5571 043d e973 93bd 11a3 edbc f269 6ebd
00000330: 8886 bfbd ad90 83bc eae0 2f3d a8e7 e7bd
00000340: 9d09 86bd 9a28 de3d 0126 973d 940d aa3d
00000350: 7b67 23bd 0f4c 1c3e a97d fe3c 2207 7ebd
00000360: 0db1 283d c0cd cbbc 37fb aabd 0934 bdbd
00000370: 729d e53c f675 debb f7d6 1a3d 5588 ea3c
00000380: 66cd 863d da1f 8c3d 5794 2c3d e292 063e
00000390: bb1c 0ebc 0433 e63d 4ed4 063e beb8 36bd
000003a0: 3d88 363a ee6f 24be 9f75 82bd 8757 36be
000003b0: efa0 d9bd 9a7b 5bbd 959c 16bd cb30 debc
000003c0: 3594 8cbd 4ab8 143e 057e 363c 1115 053e
000003d0: d968 453d 92a0 553e 291f cfbb 1eca 90be
000003e0: a0c7 11bd 22a2 aabc ab85 6fbe 8b0f 86bc
000003f0: ab47 debd af7e 18be 6f9a 8b3d daec 133d

fc1.bias f4 [50]
0.09716225 0.047259524 0.12376727 0.0771843 -0.0348831 0.205327 0.14611873 0.17658092
0.5034754 0.43714797 0.3729451 0.37150806 -0.16657165 0.15416074 0.14389732 0.19989991
0.06466763 0.0815146 0.23313314 0.37524852 -0.07963834 0.4657818 0.017397879 -0.0065381243
-0.054047238 0.048949122 0.17070784 0.088091105 0.13825412 0.01624969 -0.10655829 0.48860085
0.490374 -0.072166376 0.20860818 0.42413104 0.21820624 0.22757249 0.2560474 0.15644304
0.15594937 0.09337447 0.36118364 0.22495197 -0.07339413 0.0107078375 0.20636432 0.27483526
0.08346063 0.37425637
00000000: 00fd c63d 3493 413d b279 fd3d cd12 9e3d
00000010: 95e1 0ebd 3e41 523e 26a0 153e a1d1 343e
00000020: c4e3 003f dcd1 df3e a9f2 be3e 4e36 be3e
00000030: c291 2abe 50dc 1d3e d259 133e 90b2 4c3e
00000040: 7670 843d 20f1 a63d 74ba 6e3e 9320 c03e
00000050: 6d19 a3bd f47a ee3e ff85 8e3c c33d d6bb
00000060: a360 5dbd e07e 483d 09ce 2e3e 1c69 b43d
00000070: 7d92 0d3e 121e 853c 3c3b dabd e429 fa3e
00000080: 4d12 fb3e f7cb 93bd 629d 553e b427 d93e
00000090: 7571 5f3e c308 693e a518 833e 9b32 203e
000000a0: 31b1 1f3e 1d3b bf3d 10ed b83e cf59 663e
000000b0: a94f 96bd ed6f 2f3c 2b51 533e 35b7 8c3e
000000c0: 68ed aa3d 889e bf3e

fc2.weight f4 [10, 50]
-0.13650793 -0.20665987 0.22308895 -0.33853325 -0.17065144 0.3134642 -0.4491819 0.2495955
-0.13925123 -0.048843954 -0.32184613 -0.3329408 -0.37204924 0.19970208 -0.106520705 0.2619859
-0.33831364 0.29683647 0.25316828 -0.33358827 -0.19945043 0.15926108 0.28384355 -0.25085837
-0.35131857 -0.20554039 0.25471845 0.2799495 -0.31491455 -0.20422408 -0.12906696 0.049585022
0.38921985 -0.16441965 -0.17890142 -0.14236125 -0.36224374 -0.45592013 0.29961342 -0.3172796
0.28687415 -0.21412987 -0.21300733 0.32706496 0.2047298 -0.2653456 -0.25201657 0.19942753
0.27764255 -0.114337124 -0.26608866 -0.23593605 -0.21494806 -0.13304916 -0.31406304 0.22872588
0.1480957 -0.27801555 0.50480384 0.28884634 0.2929093 0.35466057 -0.3034509 0.15495464
0.20889267 -0.29818723 -0.0005572736 -0.3642539 -0.3027803 0.31700993 -0.36386034 0.1423898
-0.4274265 -0.108344704 -0.28286391 -0.11655469 -0.14033955 -0.31519938 0.034844846 -0.12615165
-0.3155841 0.34611198 0.31760904 -0.41770613 0.27470824 0.6442242 0.21963526 0.2004215
-0.38856915 0.18504536 -0.32036674 -0.10442979 0.23512082 -0.41200176 -0.405239 -0.053497836
0.20819557 0.13150789 -0.23990446 0.1990353 -0.12635843 0.0068318844 -0.2196925 0.22330616
0.27481186 0.32505578 0.18225032 0.2602242 -0.31137335 -0.16449216 -0.011453315 -0.070540525
-0.05062462 0.11743823 0.25353494 0.25642705 -0.07319549 -0.11374872 -0.090489164 0.3440587
-0.37186462 -0.3378896 0.2620829 0.2811279 0.27703306 0.3165115 0.24822842 0.26171592
-0.062421385 -0.08610032 -0.27558687 0.23448212 -0.20659216 -0.33159423 0.30461636 -0.059378937
-0.17221186 -0.36217472 -0.42530796 0.25226048 0.21802531 0.20384924 0.27305648 -0.3045609
-0.07678835 -0.044851415 0.18897752 0.19815625 0.2419709 -0.091649994 0.28694475 0.3025731
-0.2063726 0.2604722 0.027226284 -0.2123048 0.13841203 -0.00063519407 -0.40998888 -0.39390907
-0.28158012 -0.28362253 0.30604377 -0.23403436 0.22922896 -0.24103685 -0.16784304 0.2983932
-0.12904403 -0.050299544 -0.21258488 -0.30028927 -0.029807713 0.2864148 0.07333208 -0.028958337
0.25647402 -0.27121717 -0.13945302 0.28287846 -0.0061901924 -0.32426783 -0.3864617 -0.2402607
0.28474054 -0.17815444 0.28546837 0.2353678 -0.25612518 0.24007274 -0.22312811 0.2898329
-0.14946154 -0.276219 0.20933706 -0.19227788 -0.11814062 0.24483487 -0.14692345 -0.44328418
0.23042767 -0.119975515 -0.18057469 0.19866353 0.28951773 0.15832222 0.17758165 -0.16942893
-0.024890678 0.3064893 0.31651583 0.39216125 0.27679223 0.22388956 -0.22781754 0.2695548
0.4511253 -0.3691022 -0.15290017 -0.06316309 0.2630426 -0.3344282 -0.17405972 0.024146926
-0.009072971 0.011989247 -0.23400295 0.2601734 0.43074787 -0.09866006 0.16903518 0.3946099
-0.1912871 0.24139896 -0.12161545 -0.12135244 -0.06845642 0.21255292 -0.1773594 -0.22248247
0.213913 -0.12767777 0.20796062 0.30598584 -0.37851903 0.329121 -0.09627004 -0.49124354
-0.17582859 0.174999 0.2599046 0.2854099 -0.2263993 -0.024963187 -0.28659818 -0.29890248
00000000: bcc8 0bbe a59e 53be 6e71 643e 3b54 adbe
00000010: 40bf 2ebe 617e a03e 2cfb e5be f695 7f3e
00000020: e097 0ebe 9910 48bd 04c9 a4be 3777 aabe
00000030: 3d7d bebe b47e 4c3e 8727 dabd 0423 863e
00000040: 7237 adbe f3fa 973e 469f 813e 15cc aabe
00000050: bc3c 4cbe 5615 233e f153 913e 8270 80be
00000060: 07e0 b3be 2e79 52be 756a 823e 8a55 8f3e
00000070: 7b3c a1be 1e20 51be 212a 04be aa19 4b3d
00000080: d347 c73e a05d 28be ef31 37be 26c7 11be
00000090: 0378 b9be 5d6e e9be ee66 993e 7972 a2be
000000a0: 2be1 923e dc44 5bbe 981e 5abe 0f75 a73e
000000b0: b0a4 513e 61db 87be 5108 81be bb36 4c3e
000000c0: 2a27 8e3e 9529 eabd c63c 88be 3899 71be
000000d0: 581b 5cbe 0a3e 08be dfcc a0be 1e37 6a3e
000000e0: 66a6 173e 0e58 8ebe d33a 013f abe3 933e
000000f0: 35f8 953e 1296 b53e eb5d 9bbe 6eac 1e3e
00000100: f6e7 553e ffab 98be 0016 12ba 7d7f babe
00000110: 0506 9bbe 204f a23e e74b babe a2ce 113e
00000120: a5d7 dabe d4e3 ddbd 8ad3 90be 3ab4 eebd
00000130: 2cb5 0fbe d061 a1be 78b9 0e3d e62d 01be
00000140: 3d94 a1be 9735 b13e a79d a23e 94dd d5be
00000150: 8fa6 8c3e e1eb 243f 11e8 603e 4b3b 4d3e
00000160: 89f2 c6be 887c 3d3e 1c07 a4be 49df d5bd
00000170: 83c3 703e e5f1 d2be 7c7b cfbe 8c20 5bbd
00000180: 3831 553e 01aa 063e 84a9 75be e9cf 4b3e
00000190: 1b64 01be 00de df3b 12f7 60be 5faa 643e
000001a0: 24b4 8c3e b66d a63e d49f 3a3e 1b3c 853e
000001b0: 546c 9fbe a270 28be afa6 3bbc 8d77 90bd
000001c0: c35b 4fbd 7483 f03d 55cf 813e 684a 833e
000001d0: 84e7 95bd 17f5 e8bd 6252 b9bd 7628 b03e
000001e0: 0a65 bebe deff acbe bb2f 863e ffef 8f3e
000001f0: 47d7 8d3e cc0d a23e 972f 7e3e a1ff 853e
00000200: 91ad 7fbd 5d55 b0bd b919 8dbe 151c 703e
00000210: e58c 53be b8c6 a9be adf6 9b3e 5437 73bd
00000220: 4e58 30be f76e b9be f7c1 d9be 4928 813e
00000230: 0742 5f3e dbbd 503e 0fce 8b3e 68ef 9bbe
00000240: 3643 9dbd 1eb6 37bd 5383 413e 79e9 4a3e
00000250: 38c7 773e feb2 bbbd 6cea 923e ddea 9a3e
00000260: 5753 53be 9d5c 853e a809 df3c 6e66 59be
00000270: e2bb 0d3e 2783 26ba 10ea d1be 73ae c9be
00000280: 452b 90be f936 91be c5b1 9c3e b4a6 6fbe
00000290: ffba 6a3e 5dd2 76be 0cdf 2bbe fec6 983e
000002a0: 1e24 04be e506 4ebd daaf 59be 84bf 99be
000002b0: 4e2f f4bc f6a4 923e 212f 963d 093a edbc
000002c0: 9050 833e fadc 8abe c6cc 0ebe 72d5 903e
000002d0: 19d7 cabb 6f06 a6be 4fde c5be e706 76be
000002e0: 83c9 913e 1e6e 36be e928 923e 4204 713e
000002f0: d722 83be a1d5 753e b27b 64be fa64 943e
00000300: 720c 19be 946c 8dbe 745c 563e 7ee4 44be
00000310: b6f3 f1bd feb5 7a3e 1a73 16be 25f6 e2be
00000320: 3bf5 6b3e b9b5 f5bd 92e8 38be 746e 4b3e
00000330: ab3b 943e 381f 223e f7d7 353e c77e 2dbe
00000340: 89e7 cbbc 2aec 9c3e 5d0e a23e 5cc9 c83e
00000350: b6b7 8d3e 4e43 653e 0049 69be 1603 8a3e
00000360: e5f9 e63e f7fa bcbe dd91 1cbe a65b 81bd
00000370: 85ad 863e 2c3a abbe b63c 32be c6cf c53c
00000380: cca6 14bc 8c6e 443c 789e 6fbe 7335 853e
00000390: fc8a dc3e 490e cabd 8f17 2d3e 4f0a ca3e
000003a0: c4e0 43be 4a31 773e 8511 f9bd a187 f8bd
000003b0: e132 8cbd 79a7 593e b49d 35be 72d2 63be
000003c0: 020c 5b3e f6bd 02be a1f3 543e 2daa 9c3e
000003d0: 3fcd c1be 8c82 a83e 3a29 c5bd 4684 fbbe
000003e0: 690c 34be f032 333e 3712 853e 3f21 923e
000003f0: 38d5 67be 997f ccbc ffbc 92be bf09 99be

fc2.bias f4 [10]
0.7675503 1.3359572 -0.12634131 0.26670504 -0.42516577 0.16892722 -0.9091505 -0.024070311
-0.34961507 -0.3180698
00000000: 2d7e 443f a500 ab3f 9e5f 01be 908d 883e
00000010: 54af d9be 42fb 2c3e 16be 68bf 1a2f c5bc
00000020: bf00 b3be 0bda a2be
